…
tensor([0.0092], dtype=torch.float64, requires_grad=True)), ('ret_fac', Parameter containing:
tensor([1.1670], dtype=torch.float64, requires_grad=True)), ('g_fac', Parameter containing:
tensor([-0.0003], dtype=torch.float64, requires_grad=True))]), '_buffers': OrderedDict(), '_non_persistent_buffers_set': set(), '_backward_hooks': OrderedDict(), '_is_full_backward_hook': None, '_forward_hooks': OrderedDict(), '_forward_pre_hooks': OrderedDict(), '_state_dict_hooks': OrderedDict(), '_load_state_dict_pre_hooks': OrderedDict(), '_load_state_dict_post_hooks': OrderedDict(), '_modules': OrderedDict([('func_f', Sequential(
  (0): Linear(in_features=1, out_features=10, bias=True)
  (1): Tanh()
  (2): Linear(in_features=10, out_features=20, bias=True)
  (3): Tanh()
  (4): Linear(in_features=20, out_features=10, bias=True)
  (5): Tanh()
  (6): Linear(in_features=10, out_features=1, bias=True)
  (7): Sigmoid()
)), ('func_r', Sequential(
  (0): Linear(in_features=1, out_features=10, bias=True)
  (1): Tanh()
  (2): Linear(in_features=10, out_features=20, bias=True)
  (3): Tanh()
  (4): Linear(in_features=20, out_features=10, bias=True)
  (5): Tanh()
  (6): Linear(in_features=10, out_features=1, bias=True)
  (7): Sigmoid()
)), ('func_g', Sequential(
  (0): Linear(in_features=1, out_features=10, bias=True)
  (1): Tanh()
  (2): Linear(in_features=10, out_features=20, bias=True)
  (3): Tanh()
  (4): Linear(in_features=20, out_features=10, bias=True)
  (5): Tanh()
  (6): Linear(in_features=10, out_features=1, bias=True)
  (7): Sigmoid()
))]), 'device': device(type='cpu'), 'Nx': 28, 'BC': tensor([0., 0.], dtype=torch.float64), 'layer_sizes': [1, 10, 20, 10, 1], 'mode': 'train', 'cfg': None, 'bias': True, 'sigmoid': True, 'D': tensor(715.3000, dtype=torch.float64), 'stencil': tensor([-1.,  1.], dtype=torch.float64), 'f': tensor(0.9300, dtype=torch.float64), 'k_d': tensor(4
…
